…
model.py:96: UserWarning: Update your `Conv2D` call to the Keras 2 API: `Conv2D(64, (3, 3), activation="elu")`
  model.add(Convolution2D(64, 3, 3, activation='elu'))                   # conv2d_4
model.py:97: UserWarning: Update your `Conv2D` call to the Keras 2 API: `Conv2D(64, (3, 3), activation="elu")`
  model.add(Convolution2D(64, 3, 3, activation='elu'))                   # conv2d_5
_________________________________________________________________
Layer (type)                 Output Shape              Param #   
=================================================================
lambda_1 (Lambda)            (None, 90, 320, 3)        0         
_________________________________________________________________
conv2d_1 (Conv2D)            (None, 43, 158, 24)       1824      
_________________________________________________________________
conv2d_2 (Conv2D)            (None, 20, 77, 36)        21636     
_________________________________________________________________
conv2d_3 (Conv2D)            (None, 8, 37, 48)         43248     
_________________________________________________________________
conv2d_4 (Conv2D)            (None, 6, 35, 64)         27712     
_________________________________________________________________
conv2d_5 (Conv2D)            (None, 4, 33, 64)         36928     
_________________________________________________________________
dropout_1 (Dropout)          (None, 4, 33, 64)         0         
_________________________________________________________________
flatten_1 (Flatten)          (None, 8448)              0         
_________________________________________________________________
dense_1 (Dense)              (None, 100)               844900    
_________________________________________________________________
dense_2 (Dense)              (None, 50)                5050      
_________________________________________________________________
dense_3 (Dense)              (None, 10)                510       
_________________________________________________________________
dense_4 (Dense)              (None, 1)                 11        
=================================================================
Total params: 981,819
Trainable params: 981,819
Non-trainable params: 0
_________________________________________________________________
None
Epoch 1/5
2019-07-26 10:35:37.690615: W tensorflow/core/platform/cpu_feature_guard.cc:45] The TensorFlow library wasn't compiled to use SSE4.1 instructions, but these are available on your machine and could speed up CPU computations.
…
